…
To enable them in other operations, rebuild TensorFlow with the appropriate compiler flags.
2024-02-08 09:42:45.250450: I tensorflow/core/common_runtime/gpu/gpu_device.cc:1613] Created device /job:localhost/replica:0/task:0/device:GPU:0 with 10404 MB memory:  -> device: 0, name: NVIDIA GeForce GTX 1080 Ti, pci bus id: 0000:65:00.0, compute capability: 6.1
Model: "sequential"
_________________________________________________________________
 Layer (type)                Output Shape              Param #   
=================================================================
 batch_normalization (BatchN  (None, 29)               116       
 ormalization)                                                   
                                                                 
 dense (Dense)               (None, 512)               15360     
                                                                 
 dropout (Dropout)           (None, 512)               0         
                                                                 
 dense_1 (Dense)             (None, 512)               262656    
                                                                 
 dropout_1 (Dropout)         (None, 512)               0         
                                                                 
 dense_2 (Dense)             (None, 512)               262656    
                                                                 
 dropout_2 (Dropout)         (None, 512)               0         
                                                                 
 dense_3 (Dense)             (None, 3)                 1539      
                                                                 
=================================================================
Total params: 542,327
Trainable params: 542,269
Non-trainable params: 58
_________________________________________________________________
INFO: hbw.ml.base - None
INFO: hbw.util - Memory after prepare-model: 571.322MB (peak: 1087.361MB)
INFO: hbw.util - Memory after val merged: 571.320MB (peak: 1087.361MB)
…
